outputs/radioml/model_int8.pt (torch, 145653 bytes, 24 tensors)

emb.1.patches.1.weight f4 [32, 2, 1, 16]
000000 c5 69 21 bc 66 48 19 3e dc 71 02 3e fe 26 f1 bd
       -0.009851878 0.14969024 0.12738746 -0.11775015
000010 4f 39 38 bd 6b 81 1c be 4b af 23 be 5d 71 83 3c
       -0.04497653 -0.15283744 -0.15984838 0.016045267
000020 7b 1b c4 bd 29 95 36 3d fe 3e d2 3d 0e 49 c0 3c
       -0.09575554 0.044575844 0.10265921 0.023472335
000030 27 de d8 3d 85 ed f6 3d a9 1b 8c bd cc ba d4 3d
       0.10589247 0.12057022 -0.06841213 0.10387191
000040 fd 63 40 3e 19 0c 8f 3d 6b 2f 73 3d a5 5c 24 ba
       0.18788143 0.06984729 0.059371393 -0.00062699086
000050 c1 9f 25 bd c4 e7 3e 3e c3 6f 38 3c 58 66 99 3d
       -0.040435556 0.18643099 0.011257115 0.07490224
000060 09 81 f7 bc 52 26 0a 3e 8a 47 db 3d 51 c1 3e bb
       -0.030212896 0.1349118 0.10707004 -0.0029106925
000070 43 75 a3 bd 3f e4 a4 bc 0b 8d d7 bd 14 7b 42 3e
       -0.0798135 -0.020128367 -0.10524949 0.18992263
000080 53 dc 17 3e 0b 26 12 3d 4e e3 a4 3d c9 b8 dd bd
       0.14830141 0.03568081 0.080511674 -0.108262606
000090 b1 29 2e bd 22 f2 db 3b 3d 5d 16 3c 64 c3 11 3e
       -0.04252023 0.006712214 0.009177503 0.14234692
0000a0 66 05 45 3e ad c5 e2 bd 2f 57 0d 3e 89 ad ac bd
       0.1924034 -0.1107286 0.13802789 -0.08431537
0000b0 f7 d9 b6 3c ce 7c 6a 3d ef 17 23 3e 6f 92 2e 3e
       0.02232073 0.05724793 0.15927099 0.17048047
0000c0 ea 24 1a 3e 73 ff 40 be 45 57 82 3d e0 34 e2 3d
       0.15053144 -0.18847446 0.063643016 0.11045241
0000d0 83 65 67 3d 0c d5 8d 3c 05 2b 80 bd 9e b8 ab 3d
       0.056493293 0.017313503 -0.06258205 0.08384822
0000e0 da d5 ca 3d 7a 29 27 3e 81 1b 18 3e 54 36 e8 bc
       0.0990407 0.16324416 0.14854242 -0.028346218
0000f0 0a eb 20 be e8 7f 9d bd 72 ad 2a bd 00 bb 0c be
       -0.1571466 -0.07690412 -0.041669317 -0.1374321
000100 ab 01 35 3e b9 97 d0 3d f8 cc 2b 3e 96 7e 0f 3e
       0.17676418 0.10185189 0.16777408 0.14013132
000110 4e c8 d3 3d 35 b2 33 3e e1 cb 09 be 3f 08 ca 3d
       0.103409395 0.1754845 -0.1345668 0.09864854
000120 90 99 38 3e 1b 3f b9 3d f6 c9 59 bd d4 1b 1e be
       0.1802733 0.090452395 -0.05317112 -0.15440303
000130 51 c6 8a 3d bc cf 99 bd f4 5a d6 ba 5c 62 0d 3e
       0.06776107 -0.07510325 -0.001635401 0.13807052
000140 65 6b 64 bd 1e 0b ae 3d c1 ca 88 3d 7f 87 b7 bd
       -0.055766482 0.08498214 0.06679297 -0.08961391
000150 e1 8c 83 3d b1 a4 24 be 38 00 c4 bc c0 e5 36 be
       0.06423355 -0.1607845 -0.023925886 -0.1786108
000160 1e db 25 be 88 e1 10 3e 56 d0 02 be c2 80 92 3d
       -0.16196868 0.14148533 -0.12774786 0.07153465
000170 1d b7 1c 3e fd 04 01 3e 5d 19 5f 3c a3 27 eb bd
       0.15304227 0.12599559 0.013616887 -0.114821695
000180 36 aa c3 bd 1c 21 96 bd d9 be bd 3d e5 f2 0a be
       -0.095539495 -0.07330534 0.09264917 -0.1356922
000190 18 ee 09 bd 34 5b 81 3d b1 a8 a9 3d 8b 91 16 bd
       -0.03367433 0.06316224 0.082841285 -0.036759894
0001a0 ec 51 c3 bd 1b 69 fe bd f0 27 22 be 82 0c 28 3e
       -0.0953711 -0.12422391 -0.15835547 0.16411021
0001b0 53 57 50 3d cd c3 b9 3c 4d 3e 22 be 4f 4e 2c 3e
       0.05086453 0.022676373 -0.15844078 0.16826747
0001c0 04 16 80 3d fc 95 26 3d 8c 5f 11 be b3 99 b9 bd
       0.06254199 0.04067038 -0.14196604 -0.09062519
0001d0 03 db 04 be 07 2e 76 bd f3 bd 16 3e 50 25 08 be
       -0.12974171 -0.06010249 0.14720897 -0.13295484
0001e0 7d bc c3 3c 5e 3b 5e bc f5 dc 9e 3b ab 2c ed bb
       0.02389359 -0.013563959 0.0048481175 -0.007237991
0001f0 10 7a 02 3e 79 19 4b bc a2 38 5e 3d 36 63 e0 3d
       0.12741876 -0.01239621 0.054253228 0.10956423
000200 07 c1 1e be dc bb 8c bd d6 64 2c be f6 23 11 3e
       -0.15503322 -0.06871769 -0.16835341 0.14173874
000210 d7 a4 89 3d cf a3 0a be 0a 20 06 3e 5b a8 ca 3d
       0.06720894 -0.1353905 0.1309816 0.098953925
000220 4b 48 b7 bd b2 b3 14 3e 6d b7 a2 3d 8c 56 88 bd
       -0.08949336 0.14521673 0.07945142 -0.066571325
000230 05 b1 f9 3d 62 de 56 bd 62 40 18 be dd f5 26 3e
       0.12191967 -0.052458175 -0.1486831 0.16304727
000240 3f cf a2 3d c8 00 0b 3e 91 78 2f be d5 0e 8f 3d
       0.07949685 0.13574517 -0.17135836 0.06985251
000250 d8 2e 56 3d dc 0a 93 bd 16 61 b9 3b 46 1b 24 3e
       0.052290767 -0.07179806 0.0056573255 0.16026029
000260 6d b8 b8 3c 99 00 7e 3d f1 9d f7 3d 1b fd 18 3d
       0.022548879 0.06201229 0.12090672 0.037350755
000270 4b 98 63 3d b7 0d 38 be 2b 51 3a bd 02 c0 ea bd
       0.05556516 -0.17973982 -0.045487564 -0.11462404
000280 96 14 89 bd da 79 3c be 76 07 c7 bd ba 41 cf bc
       -0.066933796 -0.18405858 -0.0971822 -0.025299896
000290 83 a7 2d be 1d cd 23 3e 8d 63 09 bd 7b b1 bd 3c
       -0.16958432 0.15996213 -0.033542205 0.023155918
0002a0 22 af 12 be 4e fb 28 3d 53 03 38 3e 19 65 36 3b
       -0.1432462 0.041255288 0.17970018 0.0027831255
0002b0 1e c6 00 bd ae 30 24 bd e7 7f 99 bd 92 96 c1 3d
       -0.03143894 -0.040085487 -0.074950986 0.09452547
0002c0 a5 f9 c3 3d 53 8c 98 bd de 72 90 bc 10 3e 86 3d
       0.095691 -0.0744864 -0.017632898 0.06554806
0002d0 31 3b 20 bd 2e 38 d6 bd 3b 2b 23 3e 44 80 58 bd
       -0.03911895 -0.10459934 0.1593446 -0.0528567
0002e0 79 7e 8e 3d 72 82 14 be 82 a0 b8 bd cd 31 24 3e
       0.069577165 -0.14502886 -0.090149894 0.16034622
0002f0 fa 67 8a 3d 86 0e ae bc 22 fe d2 bd 4e 73 83 bc
       0.06758113 -0.02124716 -0.10302378 -0.016046192
000300 e1 3a a8 3c 0f fe f6 ba 26 d5 fe 3d 74 d1 d7 bd
       0.020535888 -0.0018844026 0.124429986 -0.10537997
000310 0e ca 2c bd e2 4a 17 3d 51 46 e9 3c b5 8e cc 3c
       -0.042184882 0.03693665 0.028475912 0.024970392
000320 64 0f 23 3d e3 76 39 be c4 dd 1c bd fc 1e d1 bd
       0.0398096 -0.18111758 -0.03829743 -0.10210988
000330 5b 22 fa bd 50 70 2e 3e 8b 4d 1f 3e 1d 51 cf 3d
       -0.12213584 0.17035031 0.15556924 0.10122893
000340 af bc ba bd 3a 28 8a 3d 46 8b 08 3e 60 22 3e bd
       -0.0911802 0.06745954 0.13334379 -0.0464195
000350 bd ae 57 3d 1a e6 70 3d d0 1f 0d bd f1 06 1b 3e
       0.052656878 0.058813192 -0.034454167 0.15139367
000360 f2 e2 bc 3b 39 6c 4b 3d 32 57 1b be d4 36 bf 3d
       0.0057643587 0.049663756 -0.15169981 0.093366295
000370 c2 a9 07 be 31 76 8e 3d cb 33 06 bd 3e 80 1f 3d
       -0.13248351 0.06956137 -0.032764237 0.03894066
000380 79 11 46 3e d3 d2 0b 3e 18 33 04 3e 52 9d 23 3e
       0.19342603 0.13654642 0.12910116 0.15977982
000390 f7 c6 fb 3c 3d 38 1c bc 4a 27 5e 3d 26 0b 11 3b
       0.030734522 -0.009534893 0.054236688 0.002213189
0003a0 45 37 83 3d 16 09 26 bd ee b4 21 bc 96 91 e5 bd
       0.06407026 -0.04053601 -0.009869797 -0.11209409
0003b0 68 b6 38 be 1d a3 bf 3d 6f d8 d4 3d 69 d0 39 3c
       -0.18038332 0.09357283 0.10392844 0.011341193
0003c0 7c af 2a bd 90 7a a5 bc 3e 46 25 3b 51 f1 b0 bd
       -0.04167126 -0.020200044 0.002521887 -0.086397775
0003d0 57 1d 2c bd e0 04 16 be 31 9a da bd 17 35 03 3d
       -0.04202017 -0.14650297 -0.10673941 0.032033052
0003e0 9f cc 3c bd ad 3a e3 bd 62 82 3b 3e 5b 20 aa bc
       -0.04609358 -0.11095176 0.18311456 -0.020767381
0003f0 69 d3 6b 3c a2 b5 d2 3d 00 de 0b bd 11 c6 20 3c
       0.014393666 0.1028855 -0.034147263 0.009812848

emb.1.patches.1.bias f4 [32]
000000 56 72 14 be b8 2e f1 3c 41 c2 ba bd e2 43 01 3e
       -0.1449674 0.029441223 -0.09119082 0.12623551
000010 8a a6 c0 bd 2a b0 97 3c 92 7b 06 3e 7f 91 17 3e
       -0.09406765 0.018516619 0.13133076 0.14801596
000020 96 bd 06 3e 58 dd a1 bd 39 8a 19 3e 51 f5 9a 3d
       0.13158259 -0.07903546 0.14994134 0.07566322
000030 cf 3f 97 bc f3 ae f7 3d d5 1d 27 be b7 e8 ca bd
       -0.018463043 0.12093916 -0.16319974 -0.09907668
000040 13 d3 1f 3e 9c a8 26 3d de 75 e3 bd a5 b0 55 bd
       0.15607862 0.040688142 -0.11106466 -0.052170414
000050 6d 9a 71 bd ba 54 98 3c 41 a3 82 bc 04 76 c3 bd
       -0.058985163 0.018595088 -0.015946986 -0.09543994
000060 bd 41 16 3e 92 59 b2 bc 55 88 9e 3d 90 88 15 be
       0.14673515 -0.021771226 0.07740847 -0.14602876
000070 bd b1 98 bd 43 ce ae 3d cf 61 4c bd 19 cc 28 bc
       -0.07455776 0.08535435 -0.049897965 -0.010302567

emb.1.patches.2.weight f4 [32]
000000 d0 96 7c 3f d5 f5 7d 3f bf b8 80 3f bf 47 77 3f
       0.9866762 0.99203235 1.005638 0.9659385
000010 e9 66 79 3f 83 8b 7b 3f 9b d2 7c 3f 4e b0 7e 3f
       0.97422653 0.98259753 0.9875886 0.9948777
000020 56 05 82 3f 5d a9 80 3f 7c b5 83 3f c4 2b 7d 3f
       1.0157878 1.0051686 1.028976 0.98894906
000030 b0 b7 7f 3f bc 07 7c 3f 78 6d 7e 3f ce ba 80 3f
       0.9988966 0.984493 0.99385786 1.0057008
000040 e3 55 7b 3f 34 b8 7e 3f 74 a0 7a 3f b3 e7 7a 3f
       0.9817793 0.9949982 0.9790108 0.98009795
000050 0a 3d 7f 3f e7 76 7d 3f e1 b9 82 3f 65 46 83 3f
       0.99702513 0.99009556 1.0212976 1.0255858
000060 23 01 82 3f fa e8 84 3f 2b 80 82 3f 1d fb 7d 3f
       1.0156597 1.0383599 1.0195364 0.99211293
000070 a9 74 7b 3f a6 3c 7f 3f fc b7 7b 3f c8 c9 7c 3f
       0.98224884 0.9970192 0.9832761 0.98745394

emb.1.patches.2.bias f4 [32]
000000 d5 3e 4b bc b9 bf 12 3c 40 0a c3 3b 66 74 61 bc
       -0.012405117 0.008956843 0.0059521496 -0.013760662
000010 78 09 ca bc 07 b7 b4 bc 85 f5 b8 3c 8d 3b cc 39
       -0.024662718 -0.02205993 0.02257801 0.0003895428
000020 7d 4b c9 ba 70 27 c3 3c d0 cc 1c 3d 2e 05 37 bc
       -0.001535758 0.023822516 0.038281262 -0.0111706685
000030 55 65 b6 bc 36 98 1e ba 4b 10 5e 3b 04 68 cc 3c
       -0.022265116 -0.0006049903 0.0033884223 0.024951942
000040 67 7b 65 bc f5 1d f7 ba da b1 80 bc 09 6e 8c 3c
       -0.014006472 -0.0018853532 -0.015709806 0.017142313
000050 4f f1 98 bb d9 d5 c0 bb 74 6e 15 3b 62 ea ee 3b
       -0.004667438 -0.0058848676 0.002280143 0.007291124
000060 d4 fc ee 3c 38 9c 18 3d 7c 19 f9 3c 96 39 d5 3b
       0.029173292 0.037258357 0.03040766 0.006507109
000070 21 32 ec 3b 81 6c 5f 3d 4f 1c 40 bc 8e 38 2f bc
       0.0072081243 0.054546837 -0.011725499 -0.010694636

emb.1.patches.2.running_mean f4 [32]
000000 83 fd 18 be ad 06 02 3d 63 19 ae bd 91 55 00 3e
       -0.14940457 0.031744648 -0.08500936 0.12532641
000010 a9 b1 c0 bd d3 3f 91 3c 58 00 05 3e 6f 75 1c 3e
       -0.09408886 0.01773063 0.12988412 0.15279172
000020 88 11 08 3e dd b6 a3 bd 67 db 17 3e d7 4d 99 3d
       0.13287938 -0.07993863 0.14829789 0.0748555
000030 e4 09 93 bc 43 29 fb 3d b9 92 27 be 00 0f ce bd
       -0.017949052 0.122637294 -0.16364564 -0.10061455
000040 c4 6c 23 3e 4b 95 22 3d 86 ee da bd 29 9e 4f bd
       0.1595946 0.039693158 -0.10690026 -0.050687943
000050 09 ef 81 bd a5 3a 97 3c 6b 52 62 bc f5 5b c7 bd
       -0.063444205 0.018460581 -0.013813595 -0.09734336
000060 4d 52 1a 3e d8 43 c7 bc 80 9f a4 3d b4 b4 1a be
       0.15070458 -0.024324343 0.08038235 -0.15107995
000070 6d 71 9b bd 6b c7 ad 3d c9 ec 55 bd cf a9 0d bc
       -0.075899936 0.084853016 -0.05222777 -0.008646443

emb.1.patches.2.running_var f4 [32]
000000 bb a0 ed 3e 8c 75 17 3f 48 29 60 3f 66 9f 18 3e
       0.4641169 0.5916374 0.8756299 0.14904556
000010 2c 49 26 3e 93 ac 24 3e d5 01 cf 3d 62 05 00 3f
       0.1623885 0.16081457 0.10107771 0.50008214
000020 9d 46 ea 3d 59 11 04 3e 07 c7 29 3e 15 6c 00 3e
       0.1143925 0.12897243 0.16579829 0.1254123
000030 16 46 10 3f 8f 87 57 3e 41 ed cd 3d 0d 1f bd 3d
       0.5635694 0.21047805 0.10055018 0.09234438
000040 54 9b f8 3e 43 83 01 3e e6 d4 09 3f af d6 b9 3d
       0.48556006 0.12647729 0.5384048 0.09074151
000050 0f 21 a7 3e 42 93 09 3f e2 3f 6a 3e 61 93 54 3e
       0.3264241 0.5374032 0.22875932 0.20759346
000060 4a 6e b1 3e 4f f8 86 3f 94 5f 96 3e 4f c3 d5 3e
       0.34654456 1.0544528 0.29369795 0.4175057
000070 a3 c1 ed 3e 3f 21 0a 3e e6 96 a4 3e 8c 3a eb 3e
       0.46436796 0.13489245 0.32146376 0.45943105

enc.1.mha.q_projection.weight f4 [32, 32]
000000 c5 29 2d bc 9c 44 a1 bd 5b 59 97 bc 51 f2 2d 3d
       -0.010569041 -0.07874414 -0.018475225 0.04246742
000010 92 04 ec bc 82 8c e5 bd c1 5f 44 3d e7 b6 e2 bd
       -0.028810773 -0.1120844 0.04794288 -0.11070042
000020 da 89 8c 3d 1f f3 d1 3d ab e3 db bd 43 44 b5 3d
       0.068622306 0.1025145 -0.107367836 0.088509105
000030 c5 61 e3 3c 86 7f 19 3d 7f 81 a9 3c 71 e4 00 be
       0.027756581 0.03747513 0.020691631 -0.12587143
000040 c6 b4 0c 3e 52 9e 1e 3e f9 35 27 be 2c f1 1d bd
       0.13740835 0.15490082 -0.16329183 -0.038560078
000050 1d 2b 34 3d ea 02 17 be f1 ec 0a be f1 79 05 3e
       0.04398643 -0.14747205 -0.13566948 0.13034798
000060 c2 44 75 3d f2 4a 93 bd 1d 6d c9 bd e6 0b 74 3d
       0.059880026 -0.07192029 -0.09835265 0.05958166
000070 96 8b 4d 3d b9 5e 0c 3d 0b 69 ba 3b 3d c3 ea 3d
       0.050181948 0.034270022 0.0056887916 0.1146302
000080 9e 36 84 bd ae 9d a7 bd ba 0e af bd aa ca d1 bd
       -0.0645573 -0.08184372 -0.08547731 -0.10243733
000090 69 e0 4b 3d 4c 43 f5 bd e6 74 07 be c2 6e c8 3d
       0.04977456 -0.119757265 -0.13228187 0.097867504
0000a0 11 07 c6 3d 11 83 f7 bd 33 0e 80 bd e5 90 20 be
       0.096693166 -0.12085546 -0.06252708 -0.15680273
0000b0 25 b2 31 3d 30 bb a0 bc 28 b4 94 3d 3d f2 e1 bd
       0.043382782 -0.019620508 0.072609246 -0.110325314
0000c0 c9 ea 40 bd f9 71 0c 3e a9 b7 22 3e 41 5b 30 3e
       -0.04709891 0.13715352 0.15890373 0.1722231
0000d0 1d 1d 56 3d f1 6c 09 3e 03 1b 33 3e 2b de 0d be
       0.05227386 0.13420464 0.17490773 -0.13854282
0000e0 75 4f d6 bd 39 54 24 3e 00 5c a9 3d c9 6a c9 3b
       -0.10464374 0.16047753 0.08269501 0.006146763
0000f0 13 82 04 3e 4b eb 1d be 0c fc ef 3d 70 75 c7 3d
       0.12940244 -0.15421788 0.11717996 0.09739196
000100 a4 51 a7 3d 8c 5e 14 3d e3 56 24 bd ca 0d 75 3d
       0.081698686 0.03622298 -0.040121924 0.059827603
000110 ad 82 22 3e 93 2d 31 3c 68 ec 59 bd 9c 85 b6 bd
       0.15870161 0.010814088 -0.05320397 -0.08912203
000120 a9 a5 33 3b 54 71 c7 bd 75 77 9a bd 40 18 86 3d
       0.0027411974 -0.097384125 -0.07542316 0.06547594
000130 78 dc 1c be ab 1c 35 3e 8b 25 19 3d f9 11 d3 3d
       -0.15318477 0.17686717 0.03738932 0.103061624
000140 74 56 54 3b 36 63 0e be 4d c3 80 3d 50 b5 b6 bd
       0.0032400163 -0.13905033 0.06287251 -0.08921301
000150 76 8e 45 bc 6b bf a1 3d 64 46 72 bc ee 5f 06 3e
       -0.012057891 0.07897838 -0.01478729 0.13122532
000160 02 c2 59 bd 23 1d d8 3d e3 36 ff 3a 05 e3 0b 3e
       -0.053163536 0.105524324 0.0019471314 0.1366082
000170 8a 0f 89 3c 3f ab 8c bd a6 a6 63 3d 92 0c 1f 3d
       0.016731042 -0.068686 0.05557885 0.038830347
000180 c7 bd 0c be b3 aa 16 be 01 35 36 be 46 8a 41 3e
       -0.1374427 -0.14713554 -0.17793657 0.18900403
000190 9a b2 15 3c 64 79 db 3c 27 6d 40 bc 5e bf 93 bd
       0.00913682 0.026791282 -0.011744774 -0.07214235
0001a0 bb be ec 3d 9d 31 aa 3d d8 71 19 be 85 6b 48 3d
       0.115598164 0.08310244 -0.14984834 0.048930664
0001b0 24 a9 04 3e a5 82 f6 bc a2 da 0e bc 91 fe 32 3c
       0.12955147 -0.030091593 -0.008719118 0.010924951
0001c0 4c e5 06 be a5 31 0e be ff f5 3e 3e 31 1d 2d be
       -0.13173407 -0.13886125 0.18648528 -0.16905667
0001d0 1f 48 27 3c 77 d3 29 be c5 4c 90 bd 91 29 01 bd
       0.010210066 -0.16584574 -0.070458926 -0.03153378
0001e0 e7 73 93 3a c3 15 bd bd 97 62 c0 3d a8 f8 61 3c
       0.0011249752 -0.09232666 0.093938045 0.013792194
0001f0 41 98 1c be 3e 4b a9 3b 2d cb 12 3e 3a 1f 2c 3e
       -0.15292455 0.0051664403 0.14335318 0.16808787
000200 9d 8b d3 bd 4c 9d a6 3d f0 a6 0d be 00 ab 19 3e
       -0.103293635 0.08135471 -0.13833213 0.15006638
000210 80 cd 3b 3d 27 e5 38 3d 23 df 10 be 9f a8 34 bd
       0.045850277 0.04514041 -0.1414762 -0.044106122
000220 d4 16 14 be b1 c0 61 3d 7b 2e 2f be 0c 50 67 bd
       -0.14461833 0.055115405 -0.17107575 -0.056472823
000230 74 a8 00 39 81 12 a8 3d e1 3d 6b 3d 80 1b 50 3d
       0.00012269785 0.08206654 0.05743206 0.050807476
000240 cc ba 25 3e 47 57 53 3c c7 29 3e 3b 80 e2 47 bd
       0.16184539 0.0128992265 0.00290166 -0.04879999
000250 c8 d4 24 bd da e3 06 be f9 5f f6 3d 5f 99 28 3e
       -0.040241987 -0.13172856 0.12030024 0.16464756
000260 7d 9c fc 3d 02 41 b1 3d 95 ad e2 bc c0 65 1a be
       0.12334535 0.086549774 -0.027670661 -0.15077877
000270 23 b5 31 3e b0 2e 14 bd b1 fd 77 bd f4 d8 e0 bd
       0.17354254 -0.036177337 -0.060544673 -0.109788805
000280 f7 7c 04 be c4 6b e8 3c e1 5b c4 3d 2e 85 0d be
       -0.12938295 0.0283717 0.09587837 -0.13820335
000290 9a c4 2c be 20 e0 3e bc 93 80 32 be d4 2d fa 3d
       -0.16871873 -0.011650115 -0.1743186 0.12215772
0002a0 66 d9 36 bc af 63 08 be 52 f9 06 3c 52 93 01 3e
       -0.01116023 -0.13319276 0.0082381535 0.12653854
0002b0 2d b6 0c 3d ba 3d 15 be 66 fa ef bb e7 54 0a be
       0.034353424 -0.14574328 -0.007323551 -0.1350895
0002c0 57 df da 3d 55 34 0d bc 3b 32 50 3d 7d b0 46 bd
       0.1068713 -0.008618434 0.050829154 -0.048508156
0002d0 d2 12 0c be ce f8 6c 3d 77 0f 07 3e 3c e0 e5 bc
       -0.13679054 0.057854466 0.13189493 -0.028061025
0002e0 ab 0b 98 bd 63 12 0a be c5 68 16 bd 6e 23 31 3e
       -0.074241005 -0.13483576 -0.03672101 0.17298672
0002f0 bf db 1d bd 8b 64 5f bd 9f dc 04 3e 35 32 0a be
       -0.038539644 -0.054539245 0.12974785 -0.13495715
000300 fb 6e e1 bc 71 08 78 bd 65 4c 7c bc b3 bc 02 be
       -0.02751874 -0.060554925 -0.015399073 -0.12767296
000310 3a cf 51 38 a2 28 c5 3b d9 9d 4b 3d f6 48 b8 bd
       5.0022478e-05 0.0060168067 0.049711082 -0.08998291
000320 8c 95 65 3d 42 be 0d be da 94 b6 3c 0c 37 a3 3c
       0.056050822 -0.13842109 0.022287775 0.01992371
000330 d6 74 1b bd 28 73 56 b9 fe db e9 3b 10 c6 e3 3d
       -0.03795322 -0.0002045153 0.007136821 0.11121762
000340 40 3d 30 3e 40 38 20 be 10 4b 1c 3e 30 aa 97 3d
       0.17210865 -0.15646458 0.15263009 0.074055076
000350 11 c6 42 3e 58 7a 27 3e a3 8f 33 bd 4b f5 92 bd
       0.19020869 0.16355264 -0.043838155 -0.07175692
000360 f8 0f 0b 3e dc e5 e7 3d d0 ed 24 3e 32 ab 79 bd
       0.1358031 0.11323139 0.16106343 -0.06095428
000370 7f 38 52 3d f9 19 60 bd 1c a8 03 be 4d b7 fa 3d
       0.05132341 -0.05471227 -0.12857097 0.12241993
000380 66 52 16 3d 87 5f 0e 3e 0f 0c a5 3d a1 f9 0d be
       0.036699675 0.13903628 0.080589406 -0.13864757
000390 52 7a b0 bd db 9c 12 3d d1 e6 19 3e d4 8e 06 be
       -0.08617081 0.03579412 0.15029456 -0.13140422
0003a0 61 3d 3e 3e 19 a3 f0 3d 72 c4 7f 3b 30 e9 3b be
       0.18578102 0.117498584 0.0039027003 -0.18350673
0003b0 23 1d 90 bd 27 be 06 3e d3 98 76 3d 9b 5a 30 3d
       -0.070368074 0.13158475 0.06020434 0.043055158
0003c0 27 9d 09 be 95 5c 3e be 19 19 0b be 71 2b 5b 3c
       -0.13438855 -0.18590005 -0.13583793 0.013377056
0003d0 96 eb 34 bc 0b 78 d2 bd e0 f4 3e 3e c7 25 38 be
       -0.011042496 -0.10276803 0.186481 -0.17983161
0003e0 fe d2 17 be 56 36 19 be 21 ac 8e bd e7 f4 87 3c
       -0.14826581 -0.14962134 -0.06966425 0.01659627
0003f0 24 d1 6a bd a0 08 86 3c 26 cc ef 3d c4 b1 fa bd
       -0.05732836 0.016361535 0.1170886 -0.12240937

enc.1.mha.k_projection.weight f4 [32, 32]
000000 9b 2a f1 bd 83 24 18 bd 5b 56 29 be 84 5c 26 3d
       -0.117757045 -0.037144195 -0.16536848 0.040615574
000010 61 c1 82 3d d8 89 05 be 0c 20 25 3e f7 0b 01 be
       0.0638454 -0.13040864 0.16125506 -0.1260222
000020 3f 12 06 3e a2 be 55 3d 04 01 fe 3d db f2 fe 3d
       0.13092898 0.052183755 0.124025375 0.12448665
000030 14 1d 15 be 12 82 a5 3d 08 e4 9d bd a8 6f 6f bd
       -0.14561874 0.080814496 -0.07709509 -0.058456093
000040 93 3b 95 bd 86 64 2b be 38 76 56 bd 6f dc f3 bd
       -0.072867535 -0.16737565 -0.052358836 -0.11907279
000050 98 19 48 3e 2a bd a7 bc 76 c9 1d 3e 78 09 51 bd
       0.19541013 -0.020475943 0.15408882 -0.05103442
000060 c7 d3 05 be ae b8 2f 3e 51 47 0d be 23 65 da 3c
       -0.13069068 0.17160293 -0.13796736 0.026659554
000070 3a 9f a6 bd 64 6a 3b be 2d d4 8a bd 74 1e f8 bd
       -0.08135839 -0.18302304 -0.067787506 -0.121151835
000080 39 52 ee 3d b9 7f 25 be 5a b4 17 be 17 54 5c bd
       0.116367765 -0.16162004 -0.14814892 -0.05379113
000090 18 23 f7 bc ce b0 62 3d 67 99 2c 3d 82 c9 99 bb
       -0.030168101 0.055344395 0.042138483 -0.004693211
0000a0 59 8d 0a 3b 51 2a 5a bd 3c 61 06 3c 63 82 48 3e
       0.0021141379 -0.053263012 0.008201893 0.19580989
0000b0 7e 8e de bd 78 d2 7c 3d 9c 38 54 3c 60 79 12 3c
       -0.10867022 0.061724156 0.01295295 0.008940071
0000c0 93 67 af 3d 49 c7 04 3d 4d 36 8f 3c 7d 24 04 be
       0.08564677 0.032416616 0.017481947 -0.12904544
0000d0 dd 9d df bd 4d 47 06 3c f8 64 76 3d 28 45 24 be
       -0.10918782 0.00819571 0.060154885 -0.16042006
0000e0 d5 1d 10 3e d9 ac 2f be a3 62 2d 3e 2a 21 11 3e
       0.1407388 -0.1715578 0.16932158 0.14172807
0000f0 90 ac d1 3d d2 bf 20 3e 35 d7 80 3d df 7b 8f ba
       0.10237992 0.15698174 0.062910475 -0.0010946951
000100 f0 d6 de bd 36 e8 b4 3d e5 d3 85 bd f2 69 43 bd
       -0.1088084 0.08833353 -0.06534556 -0.04770846
000110 89 df 8f bd 66 b2 42 bd cf fa 1b 3c a9 68 94 3b
       -0.07025058 -0.047533415 0.009520247 0.004529078
000120 e4 68 1a 3e 0a 68 b2 3c 41 c1 31 3e 6a 4b db 3d
       0.15079075 0.021778125 0.17358877 0.107077435
000130 80 d0 09 be 00 f5 0d bd 17 e2 f5 bd 76 87 02 be
       -0.13458443 -0.03465748 -0.12006014 -0.12746987
000140 fb a9 1f 3d 08 4d 19 be 94 6e 2c be 74 f6 d1 3c
       0.038980465 -0.14970791 -0.16839057 0.025630213
000150 ab f4 15 be 4c c3 46 3d 3c cc f6 3d eb 22 13 3d
       -0.14644115 0.048526093 0.12050673 0.035921972
000160 e8 95 6f bd 21 b4 e2 bd 2b a1 32 be b0 f2 26 3e
       -0.05849257 -0.11069513 -0.17444293 0.16303515
000170 b7 77 21 3e e2 a5 92 3d 87 48 d0 3d 3d c4 00 be
       0.15768324 0.07160546 0.101700835 -0.12574859
000180 59 63 4d 3c da f0 1a be ff da e4 3d b6 1d eb 3d
       0.012535893 -0.1513094 0.11174583 0.11480276
000190 4e 06 1c 3e 45 17 23 bd 04 95 c6 bc fb e7 02 3e
       0.1523678 -0.039817113 -0.024240978 0.12783806
0001a0 1c 92 2b be 55 7a 2c be 17 b9 35 3d cb 48 21 3d
       -0.16754955 -0.16843541 0.04436597 0.03937606
0001b0 03 71 a6 bd 86 a5 48 3d 83 14 05 be a9 43 ec 3d
       -0.08127024 0.04898598 -0.12996106 0.11536343
0001c0 46 35 ee 3d 14 17 07 be f3 ab 00 bd 28 29 20 3e
       0.11631255 -0.13192397 -0.031413984 0.156407
0001d0 46 42 a0 3d c9 a4 3e be a6 e8 1c bd 65 2f f5 3c
       0.07825141 -0.18617548 -0.03830781 0.029929826
0001e0 34 04 64 bb 2a b4 c4 3d 4a 92 a0 bd a1 d3 1f be
       -0.0034792544 0.09604676 -0.078404024 -0.15608074
0001f0 f6 71 de 3b 81 a5 a1 bc e7 08 16 3e 11 01 af 3d
       0.0067884875 -0.019732239 0.14651833 0.08545125
000200 65 64 80 3d 46 82 97 3c 06 a9 a1 3d 92 56 18 3d
       0.06269149 0.018494736 0.07893567 0.037191935
000210 69 8c 9b 3d 7c c8 e7 3d b5 9f 10 bc a9 49 cf bc
       0.075951405 0.11317536 -0.00882714 -0.025303679
000220 f3 44 05 be a4 cb 20 be 65 32 96 3d 7b 84 db bd
       -0.13014583 -0.15702683 0.07333831 -0.10718628
000230 2e 3f 2c 3d a2 a5 49 bc d0 82 be bd 64 09 f5 bd
       0.04205244 -0.012307556 -0.09302294 -0.11964682
000240 e5 32 87 bd 25 44 3c be c0 85 1a 3e ce ea 26 3e
       -0.06601504 -0.1838537 0.15090084 0.16300508
000250 08 e4 d0 bb bc e6 e6 3d 8b 55 fa bd 3a 99 fe bd
       -0.0063748397 0.11274478 -0.12223347 -0.124315694
000260 23 af 14 3e c9 2f 3c bd d5 b2 f3 3d 9b ad 99 bd
       0.14519934 -0.04594401 0.11899344 -0.07503816
000270 58 ea 0c bd bb 51 70 3d 0a 33 e2 3d 15 c2 79 bd
       -0.034403175 0.058671694 0.11044891 -0.060976107
000280 ba 06 12 3e 2f 95 e5 bd 75 75 0f be 49 0d ba bc
       0.14260378 -0.11210095 -0.1400965 -0.022711413
000290 8f e5 8c 3b 90 e2 e0 3d 8b a4 c4 bd 0a 08 e8 3d
       0.0042998265 0.10980713 -0.096016966 0.11329658
0002a0 ac ba 18 bd dc c3 38 3e 36 56 11 be d7 1e f9 3d
       -0.0372874 0.18043464 -0.14193043 0.12164085
0002b0 86 b8 e4 bd c8 fa 86 bd 21 8a ea bd 88 08 1e bc
       -0.111680076 -0.065908015 -0.11452127 -0.009645589
0002c0 5c 0b 6a 3c 98 d8 28 be c2 d4 68 3d 0c 02 eb 3b
       0.014284935 -0.16488874 0.056843527 0.007171875
0002d0 b6 1a 27 bd 69 78 83 bd a3 fb 25 be 96 5c 2d 3c
       -0.040796958 -0.06419451 -0.16209273 0.010581156
0002e0 b7 1a 1c 3e 24 6c d3 bd 9d 91 01 3e 91 f3 2a 3d
       0.15244566 -0.103233606 0.12653203 0.04173619
0002f0 6d 24 e8 bd 80 e7 5d bc 95 e7 83 bb 81 3b 09 3e
       -0.11335073 -0.013543963 -0.0040254095 0.13401605
000300 30 e2 ba bd 9d 35 f0 bd 9d 00 44 3d de 86 f7 bc
       -0.09125173 -0.11728976 0.047852147 -0.030215677
000310 a6 89 35 be 96 9d f3 bd fb 47 cd 3d 4d 95 ef bc
       -0.1772829 -0.118952915 0.10023495 -0.029245997
000320 cd 0a eb 3c 23 c0 e9 3d 7d 67 f5 bd e8 02 14 3e
       0.028691674 0.114136 -0.119826294 0.14454234
000330 c8 ca 55 3e 4d 75 6c bd 8f bc f7 bd 08 b1 4e bb
       0.20878136 -0.057729054 -0.120965116 -0.0031538624
000340 99 ae d9 bd db 6e ad 3d bf f7 2a be 18 1d fc bd
       -0.10629005 0.0846841 -0.1669607 -0.12310237
000350 06 18 36 bd 25 92 69 3d f3 a4 02 3e da 9d 07 3e
       -0.044456504 0.05702414 0.12758236 0.1324381
000360 49 80 27 bd 6b 4d 2f bd c8 b9 d3 bd c7 5a b2 bb
       -0.040893827 -0.04279844 -0.10338169 -0.0054429504
000370 81 75 c2 bd e0 6d e6 bd 38 da 32 3e 83 c6 ae 3c
       -0.09495068 -0.11251426 0.17466056 0.021334892
000380 4c b9 87 bd f9 7a 28 be 6d 6a d2 bd 44 3b e7 3d
       -0.066271394 -0.1645316 -0.10274205 0.11290601
000390 ba 4b e0 bd 9c 06 2f be 3b b7 16 3d 09 42 46 bc
       -0.10951944 -0.17092365 0.036795836 -0.012100705
0003a0 a0 a4 03 3e 14 b8 8f 3c 7d 4e d1 3c be 2f 12 3e
       0.12855768 0.01754383 0.025550121 0.14276025
0003b0 22 2c b0 bd 6a 15 42 bb fe 2f 59 3d 80 98 3d bd
       -0.08602168 -0.0029614815 0.053024285 -0.046288013
0003c0 76 92 82 3d c3 91 eb ba 5e 9a 28 be dc c9 09 be
       0.063755915 -0.0017972518 -0.16465136 -0.1345591
0003d0 69 00 8d bb 7d 76 cf bd b1 c7 1f 3e ed 73 2a be
       -0.0043030274 -0.10130022 0.1560352 -0.16645785
0003e0 a3 31 d2 3c e8 ad 07 be 4a 38 c6 bd 9a 33 af bd
       0.025658434 -0.13249934 -0.09678705 -0.08554764
0003f0 1c 43 58 3d 57 56 87 3d cf 6d 27 3e 5a 11 ae 3d
       0.052798375 0.06608265 0.16350482 0.08499403

enc.1.mha.v_projection.weight f4 [32, 32]
000000 fd 21 c1 3c 6f 93 3c 3d 75 17 a3 3d c4 f7 11 3e
       0.023575777 0.04603904 0.079634584 0.14254671
000010 c6 da f5 bd 64 6b d0 3c 0f 51 e9 bc 43 80 e4 bc
       -0.12004618 0.025441833 -0.028481035 -0.027893191
000020 8c d2 e9 bd 4a ad 6e bd fd aa 2f 3d 3e 16 04 bc
       -0.11417112 -0.05827073 0.042887677 -0.008061944
000030 39 06 b2 3d bb 02 f2 bd 74 89 fa 3c 4f fc 21 3e
       0.08692593 -0.11816927 0.03058312 0.15818904
000040 5a f5 26 3e 31 ef c1 3d e1 b9 bc 3d d1 79 10 bc
       0.16304532 0.0946945 0.09215141 -0.008818106
000050 dd af 94 3c a3 6b 0f 3e c5 6e 36 3e a5 41 39 be
       0.018150264 0.14005904 0.17815693 -0.18091448
000060 9a 56 47 3e 25 9f 23 be 2d 69 4f bd b6 68 a9 bd
       0.1946663 -0.15978678 -0.050637413 -0.08271925
000070 5e f0 3f be fb 35 f8 3d 28 0c 11 3e 07 e5 d0 3d
       -0.18744037 0.12119671 0.14164793 0.101999335
000080 68 9d 25 be 25 09 f7 bc 55 25 0f 3e d0 f5 a8 3c
       -0.16173327 -0.030155728 0.13979085 0.020625025
000090 5b 1d e2 3d ca ea b2 3c 3d 9a 2e 3e d8 00 24 3e
       0.11040755 0.021840472 0.17051025 0.16015947
0000a0 cd 03 14 3d fd ee 07 3e 76 11 cc bd 30 23 1a be
       0.036136437 0.1327476 -0.09964268 -0.15052485
0000b0 d6 c1 c6 3d 54 2f 85 3d 02 a7 d9 bc 7c 45 a8 3c
       0.0970494 0.06503168 -0.026568893 0.020540945
0000c0 2e 5b 28 be ea 51 af 3d 03 f3 1b 3e 98 f8 29 bd
       -0.16441032 0.08560546 0.1522942 -0.041496843
0000d0 47 7a b5 3d 11 8e a0 3d 19 f7 06 be cf 8e 9e 3d
       0.08861213 0.07839597 -0.13180198 0.07742082
0000e0 fa 96 22 3d 59 16 ce 3d 68 83 9d bd 83 7f 1d 3d
       0.039694764 0.10062856 -0.076910794 0.038451683
0000f0 bc 40 04 bd e1 b4 38 3e 29 7e ed 3d 42 49 bd 3d
       -0.032288298 0.1803775 0.11596329 0.092424884
000100 d1 a6 0a 3e 1c 0e 33 be 2a 1d 0e 3e 5e a8 14 3e
       0.13540198 -0.17485851 0.13878313 0.14517352
000110 13 6b 03 be b3 d3 c1 3d 60 16 59 3b 75 0f 02 3e
       -0.12833814 0.094642065 0.0033124909 0.12701209
000120 1f f3 3e be b2 a5 94 3a 93 c3 9c bd f7 6c 22 be
       -0.18647431 0.0011340885 -0.0765449 -0.1586188
000130 53 f6 11 3e 05 03 24 3e 81 a6 20 be aa dc 8f bd
       0.14254121 0.16016777 -0.15688516 -0.0702451
000140 4f eb b4 bd 32 b4 b0 bc b4 22 5c bc 3c 58 23 be
       -0.08833944 -0.021570299 -0.013436008 -0.15951627
000150 5e 40 15 3e 72 e6 22 bd 4a 72 33 be e6 d4 f6 3d
       0.14575335 -0.03977055 -0.17524067 0.12052326
000160 37 f4 bd bd 83 23 12 bc 22 80 21 be 30 c9 16 3d
       -0.09275096 -0.0089195995 -0.15771535 0.03681296
000170 14 7d 00 be 2c b2 9a 3d 16 77 39 3d 19 4a 86 3d
       -0.12547714 0.07553515 0.045279585 0.06557102
000180 5e fe 7d bc 95 fa 8e 3c fe 08 45 be 76 37 4d bd
       -0.01550254 0.017453471 -0.19241711 -0.05010172
000190 08 4a d9 bc 82 60 1c 3e 37 d3 e1 3d af b1 79 3d
       -0.026524559 0.1527119 0.11026614 0.060960468
0001a0 b1 bc 33 be e6 ec 39 3e 83 3f 39 3e 28 2e a7 bd
       -0.17552449 0.18156776 0.18090634 -0.081631005
0001b0 a6 f6 41 be 0c 78 3a be fc c8 12 be 98 0a 0d 3e
       -0.18941745 -0.18209857 -0.14334482 0.13773572
0001c0 fc 0f 52 bd 40 d6 18 be 44 c6 10 3b 22 05 50 3d
       -0.051284775 -0.1492548 0.0022090832 0.050786145
0001d0 eb 0b 45 bc 69 39 fc bd d2 b8 bf 3d e1 9e 91 bd
       -0.012026767 -0.123156376 0.093614236 -0.07110382
0001e0 5d e9 34 be 9e b2 ef 3d 91 0c 24 3e 22 e6 58 bd
       -0.17667146 0.117039904 0.16020419 -0.052953847
0001f0 ad 7c 2f bd 33 2b 18 3d 9f dd 0b be b6 43 f9 3c
       -0.04284351 0.037150573 -0.1365876 0.030427795
000200 0e 30 eb 3d ec 91 1b 3e 83 f2 38 3e e7 fc 9f bd
       0.11483775 0.15192384 0.18061261 -0.07811909
000210 e0 46 8c bd 1e 8a 24 be 50 ee eb 3d 1e ff b2 3d
       -0.06849456 -0.16068313 0.11520064 0.08740066
000220 b2 84 aa 3d f0 45 a4 3c 7e 54 e0 3c 33 2d 33 be
       0.08326091 0.02005288 0.027384039 -0.17497711
000230 a8 ef 55 bc 6f 86 46 3d d6 27 35 bc 88 30 34 be
       -0.013057627 0.04846805 -0.011056861 -0.17596638
000240 ab 24 26 bc 4a fa 4e 3c d7 78 0f be 12 c5 06 3e
       -0.010140578 0.012632916 -0.1401094 0.13161114
000250 8c 76 8a bd c6 1d e4 3d 8a b1 c9 3c 39 9b 87 bd
       -0.06760892 0.11138491 0.02462079 -0.06621403
000260 0a c6 9e 3d c8 f5 c6 3d e2 73 cd bd 8b bf 0c be
       0.07752617 0.09714848 -0.100318685 -0.13744943
000270 2a 99 99 bd 6d 54 3e 3d 5d 7a 22 3e d5 f6 84 bd
       -0.07499917 0.046467233 0.1586699 -0.06492392
000280 6d 80 a0 bc 80 ab b5 3d fd 3a 6a 3d 8e db 06 3e
       -0.019592488 0.08870602 0.05718516 0.13169691
000290 24 b2 c4 3c a5 bd 1d be 5a a5 86 3c 4a 8d 73 bd
       0.024010725 -0.15404375 0.016436268 -0.059460916
0002a0 9e c7 b6 3c 3a c3 80 3d e7 f0 66 3d 12 55 cf bd
       0.022311982 0.062872365 0.056382086 -0.10123648
0002b0 a8 20 5e bd 84 66 23 be 31 41 a5 3d 9e b9 25 be
       -0.054230362 -0.15957075 0.08069075 -0.16184089
0002c0 e0 de 65 3c 85 4d 3b be 45 f6 ee bd a9 63 9a bd
       0.014030188 -0.1829129 -0.11668066 -0.0753854
0002d0 07 13 67 bd a8 75 8e 3d fe 1c 7a 3d e8 81 13 3e
       -0.05641463 0.06956035 0.061062805 0.14405024
0002e0 a5 ef e4 bd bc f4 36 3d 5f 84 07 3e 76 47 d0 bc
       -0.11178521 0.04466699 0.1323409 -0.0254247
0002f0 a7 30 e1 bd e8 0b e5 bd df f9 2e bb 6c 1e 0c 3e
       -0.10995608 -0.111839116 -0.0026699228 0.1368348
000300 af aa 23 3d 64 bb a4 3d d3 33 10 3d e3 01 6a bd
       0.0399577 0.080435544 0.035205673 -0.057130706
000310 38 f0 6f 3d 14 48 15 bd d2 23 9f bd 46 2a 13 be
       0.0585787 -0.036445692 -0.07770504 -0.14371595
000320 32 42 3e 3e 3c cc 36 3e b2 4a 0d be 47 67 47 3e
       0.18579939 0.17851347 -0.13798025 0.19472991
000330 6e 6b 59 3d 22 30 bc bd 90 40 ee bd 16 1b d2 bd
       0.05308097 -0.09188868 -0.11633408 -0.102590725
000340 c7 6f 0d 3e 7e 89 a5 3d f7 94 b3 3d 07 e2 76 bd
       0.13812171 0.08082865 0.08768647 -0.06027415
000350 56 26 16 3e 52 3d e3 3d 4c 9c 4e 3d aa d9 12 3e
       0.14663061 0.1109568 0.050442025 0.14340845
000360 de ef bd bd fc 7a 5c 3d 58 2d c9 bc b2 d9 7a bd
       -0.09274267 0.053828225 -0.024557754 -0.061242767
000370 9b 8e b0 bd 4d da dc bd 06 1e f2 bd 05 43 f0 bd
       -0.0862095 -0.10783825 -0.11822133 -0.11731533
000380 ba 53 94 3d 99 9d f1 bc 85 69 27 3e 75 78 12 3e
       0.07242532 -0.029494094 0.16348846 0.14303763
000390 e8 16 c5 bd c4 16 eb 3d b8 b9 22 be b4 fc 28 3e
       -0.0962351 0.114789516 -0.15891159 0.16502649
0003a0 d8 6a b2 bd 4b f6 08 be 49 a2 00 be 87 d5 d9 bd
       -0.08711785 -0.13375203 -0.12561907 -0.1063643
0003b0 8f f0 47 3e d5 3d d6 3d a1 78 35 bd 07 4c 5d bd
       0.1952536 0.10461012 -0.044304494 -0.054027583
0003c0 ab d5 35 3c 45 25 16 be 3b 7f a1 bd 28 02 2d bd
       0.011098306 -0.14662655 -0.078855954 -0.042238384
0003d0 94 eb 11 3e 98 d0 7f bd ae 5b ce bd e8 27 3a bc
       0.14250022 -0.06245479 -0.1007608 -0.011362053
0003e0 84 81 26 3c b2 ee 37 3e e9 42 fc 3d 30 3b 24 3e
       0.010162715 0.17962149 0.123174496 0.16038203
0003f0 30 43 07 3e 28 d5 22 3d dd 5c 8f bc 37 47 4e bd
       0.13209224 0.039754063 -0.017500335 -0.050360885

enc.1.mha.o_projection.weight f4 [32, 32]
000000 6e b0 0c bd 2c 0a 30 3d 6c 1e 33 3e 87 75 c3 bc
       -0.034347944 0.04297845 0.17492074 -0.023859752
000010 a1 66 76 3d 7e bc 1a 3e 3c f5 74 3b 10 94 74 3d
       0.06015647 0.15110967 0.0037377616 0.059711516
000020 da ae 24 3e a9 6d fc 3d 18 fd 14 3e 27 6e 5e 3d
       0.16082326 0.123256035 0.14549673 0.05430427
000030 2b 87 26 be d6 a2 6c bd e5 78 80 3d cc df ef bd
       -0.162625 -0.05777248 0.06273059 -0.11712608
000040 e8 18 eb 3d 7d a8 27 3e 0a 3e 42 be 79 da 1c be
       0.1147936 0.16372867 -0.18968979 -0.15317716
000050 b1 11 0c be ed c2 5b 3d e3 b8 0f 3e b1 2d 28 be
       -0.13678624 0.053652693 0.14035372 -0.1642368
000060 45 72 c5 bd 56 70 24 3e 41 a5 12 3e 2f a6 3e bc
       -0.09640936 0.16058478 0.14320852 -0.011636301
000070 b0 d7 a2 bd c6 2a 27 3e 5d 89 07 3e f8 1d 72 3d
       -0.079512954 0.1632491 0.13235994 0.05911061
000080 82 46 04 be 51 6b 82 3b e5 8e 0e 3e 60 5a 46 3e
       -0.12917522 0.0039800783 0.13921697 0.19370413
000090 40 81 86 bc e3 f2 09 3e 23 af 27 be 70 af 64 bd
       -0.016419053 0.1347156 -0.16375403 -0.055831373
0000a0 6e 55 bc 3a 61 2c ce 3d 4f e2 7a 3d 00 db 27 3d
       0.0014368722 0.10067058 0.06125098 0.04098034
0000b0 28 f3 1f be cf 2d d3 3d 55 3c 37 be 9c 89 db bd
       -0.156201 0.10311472 -0.17894109 -0.10719606
0000c0 be db ae 3d b9 0f 3a 3e 3d 7d 9b 3c e9 d1 dd bd
       0.08538006 0.1817006 0.018980617 -0.10831053
0000d0 3a 5a a3 3d 9f 4e 09 3c 73 b3 d5 3d cd 9b d4 3d
       0.07976194 0.008380561 0.10434618 0.10381279
0000e0 63 34 ae bd 45 3e 2e be 8b 98 82 bd 01 50 22 3e
       -0.08506086 -0.17015941 -0.063767515 0.15850832
0000f0 fa cc 9c bd 35 a5 b7 bd ed 54 17 be b4 4c 15 3e
       -0.07656284 -0.089670576 -0.1477849 0.14580041
000100 77 f2 c8 bc 7a cf d4 bd f7 62 52 bc 14 c6 21 3e
       -0.024529679 -0.103911355 -0.012840978 0.15798217
000110 bc 2d 9c 3d 3c e4 7f bd ed 33 01 3e 85 e2 bd bc
       0.07625911 -0.06247352 0.12617464 -0.023179302
000120 49 80 1f bc e2 97 86 bd fd d9 55 be c5 d6 c5 3d
       -0.009735175 -0.06571938 -0.20883937 0.09660105
000130 7b 6e 15 bd 8b a7 94 3d b3 82 08 3d e6 64 71 bd
       -0.036482316 0.07258519 0.03332777 -0.058934115
000140 91 55 f9 3d f3 e0 28 3e 1c 71 1a be f9 ea 17 bd
       0.121745236 0.16492061 -0.1508221 -0.03708932
000150 83 c6 16 3e c2 2d 26 be bc 61 fd 3d 91 da 05 be
       0.14724164 -0.16228393 0.12372157 -0.13071658
000160 69 9d 18 3e 4f 88 59 3b 88 79 ac 3d 28 e2 4b be
       0.14903797 0.0033192819 0.08421618 -0.1991049
000170 08 b3 e0 bd a7 eb 43 3e af ec 13 be 09 4e fb bd
       -0.109716475 0.19132863 -0.14445756 -0.122707434
000180 53 61 af bd bb de 92 3d d3 69 19 3e 2a 1f 66 3c
       -0.08563485 0.07171389 0.14981775 0.014045516
000190 c6 73 c2 bc 45 d1 fa 3d d0 e3 ce bd fa 1b f5 bc
       -0.023736846 0.12246946 -0.101020455 -0.029920567
0001a0 2a de b4 3c 69 db cc 3d da 27 61 bd d5 37 a6 39
       0.022078592 0.10002787 -0.054969646 0.00031703585
0001b0 1c 9e f9 3d 34 51 4f bc d1 c6 eb bc 2c a7 ca bd
       0.1218836 -0.012653638 -0.028781326 -0.09895167
0001c0 c1 d0 00 be a8 a5 e9 3d d0 2c a9 bd 21 c6 17 3e
       -0.12579633 0.114085495 -0.082605004 0.14821674
0001d0 63 21 96 3d 21 c4 80 bc d7 b9 5e bd 37 91 ff 3d
       0.07330587 -0.015718522 -0.05437645 0.124788694
0001e0 0c b6 95 bd fd d5 b6 bd 67 22 bd 3d f6 2c 63 bd
       -0.07310113 -0.08927534 0.09235077 -0.0554628
0001f0 62 14 c4 3d 39 a9 d3 bd 58 c1 23 bd 06 f3 07 be
       0.095742 -0.10335011 -0.03997931 -0.132763
000200 72 43 2f 3e e6 56 45 bd aa d4 ea bd e1 a8 9d bd
       0.17115572 -0.048178576 -0.11466344 -0.07698227
000210 dc 6b d0 bc c1 c5 7d bd 9f 29 6b bd 67 2b 27 3e
       -0.025442056 -0.06195617 -0.05741274 0.1632515
000220 14 21 12 be 33 d6 d3 bd c7 5f 2d 3e 31 ba 35 3c
       -0.14270431 -0.1034359 0.16931067 0.011091755
000230 c2 e8 b3 3d 7d f8 0f 3e db 81 bb 3c 92 6c d2 bd
       0.087846294 0.14059635 0.022889068 -0.102746144
000240 48 b7 0d 3e 12 9d 73 bb a1 ae 3b 3d f3 21 ac bd
       0.13839447 -0.0037172479 0.045820836 -0.08404913
000250 67 6f 4f bd 4b 8b 1e be 56 c8 94 3d a6 be 1f be
       -0.05064335 -0.15482824 0.072647735 -0.1560007
000260 63 ca 13 3e d0 99 bb bd 1e dc 32 3e 4f 62 0f 3e
       0.14432673 -0.09160197 0.1746678 0.14002346
000270 f8 6a ae bd fa e0 cb bd 2c a3 24 be c7 c3 00 bc
       -0.085164964 -0.0995502 -0.1607787 -0.007859177
000280 db cd 02 be c6 8c fe bd 4a 1f 45 bc c5 06 1c 3e
       -0.1277384 -0.12429194 -0.012031386 0.15236957
000290 27 ae 95 bd be da 08 3e db 68 38 be b1 09 1f be
       -0.073086075 0.13364694 -0.18008749 -0.1553104
0002a0 71 9a c5 3d 70 9a d2 3d 25 e5 ab bd d3 2f 0c be
       0.09648598 0.10283363 -0.08393315 -0.13690118
0002b0 47 d7 29 bd 77 e6 f7 3d 10 78 12 be 71 0f 15 be
       -0.04146507 0.121045046 -0.14303613 -0.14556672
0002c0 fb 2f 66 3d 37 f2 25 bd 82 6a 0e be d7 e0 13 be
       0.0561981 -0.040514197 -0.13907817 -0.14441238
0002d0 97 66 87 bd 3f 14 63 bb b2 9f 36 3e 1c 2b ba bd
       -0.06611364 -0.0034649519 0.17834356 -0.09090254
0002e0 d8 cc 92 3c bb 6d 05 be 95 01 c7 bd 94 31 d5 3c
       0.017919943 -0.1303014 -0.097170986 0.026024617
0002f0 72 13 18 be 9b e7 2e bd a4 94 87 bd 42 57 b7 bd
       -0.14851168 -0.042701345 -0.06620148 -0.0895219
000300 5b b8 8a bd 66 d8 24 be 5e d6 24 3d 1f c1 e7 3d
       -0.06773444 -0.16098174 0.0402435 0.11316132
000310 74 d8 25 3e 5b f6 6b 3c 65 a7 98 bb bb b9 14 be
       0.16195852 0.014401997 -0.004658627 -0.14523976
000320 f7 47 01 3d 9a 0a c4 bd 12 0a 20 be ac 28 3a be
       0.03156277 -0.095723346 -0.15628842 -0.18179578
000330 f8 6a cc bd d0 93 0e 3d af 4a 47 3d 38 f8 73 3c
       -0.0998134 0.034808934 0.04865521 0.014890723
000340 7e e3 13 3e a7 91 4f 3d f8 fe ef bd 64 d1 14 be
       0.1444225 0.050676014 -0.11718553 -0.14533001
000350 4a 3c ea bd d6 39 0f 3e 92 45 d2 bd a8 6c cb 3d
       -0.114372805 0.13986906 -0.10267176 0.09932834
000360 fe 35 11 3d cd 70 66 3c 99 1a 81 3d fe 01 46 ba
       0.03545188 0.01406498 0.06303901 -0.00075533974
000370 4f 9d c4 3c 8d bf 01 be 68 97 cb bd e7 c5 35 3e
       0.024000792 -0.12670727 -0.09940988 0.17751275
000380 e4 7d 52 3c f1 13 80 bd 35 23 71 3d 7d 89 28 3e
       0.0128473975 -0.062538035 0.058871467 0.16458698
000390 dc 10 96 3c 85 ca 83 bd 78 c3 c1 3d 91 07 02 be
       0.018318586 -0.06435112 0.09461111 -0.12698199
0003a0 24 54 ea bd 1d ad 15 bd 25 6b 0f bd be 16 48 3d
       -0.1144183 -0.036542047 -0.03501429 0.048849814
0003b0 66 44 f0 bd 3c ba cb bd 93 b6 87 3d 88 aa 6b 3d
       -0.11731796 -0.09947631 0.0662662 0.05753568
0003c0 00 36 2d 3e 37 67 fc bc 03 47 d2 bc d1 00 34 be
       0.1691513 -0.030810935 -0.025668627 -0.17578436
0003d0 e4 48 bb bd 80 96 25 3e e8 3e 25 be 55 73 82 bc
       -0.09144762 0.16170692 -0.16137278 -0.015924135
0003e0 99 a1 ac 3a 70 07 d5 bd 21 2c 0d be 19 70 0b 3e
       0.0013170718 -0.10401809 -0.13786365 0.1361698
0003f0 73 9e 95 bd 6f c3 98 3d e8 9d 09 be 36 fe 34 3d
       -0.073056124 0.07459151 -0.13439143 0.044187747

enc.1.post_norm.1.weight f4 [32]
000000 98 72 84 3f ff 6e 7c 3f 6f a6 80 3f 62 e0 81 3f
       1.0347471 0.98606867 1.0050792 1.0146601
000010 d1 81 84 3f 9a 82 7f 3f 0a 45 7c 3f f8 a0 7c 3f
       1.0352117 0.9980866 0.98542845 0.9868312
000020 b9 eb 79 3f ca aa 7f 3f 06 ab 7f 3f d0 3b 7f 3f
       0.9762531 0.9986998 0.99870336 0.9970064
000030 71 db 80 3f d0 ba 7d 3f cb d6 7d 3f a1 7f 7d 3f
       1.0066968 0.9911318 0.99155873 0.9902287
000040 48 f5 80 3f 12 15 82 3f 33 51 82 3f 4a eb 80 3f
       1.0074854 1.016268 1.018103 1.0071805
000050 e6 fb 82 3f f6 2c 7c 3f 17 cf 81 3f 8c 5e 79 3f
       1.0233123 0.98506105 1.0141324 0.9740989
000060 eb 97 80 3f ec a3 7e 3f e0 db 83 3f a5 ed 7c 3f
       1.0046362 0.99468875 1.0301476 0.98800117
000070 33 6b 7c 3f 90 7a 84 3f 81 25 7a 3f 4a 2c 80 3f
       0.98601073 1.0349903 0.97713476 1.0013516

enc.1.post_norm.1.bias f4 [32]
000000 5d 6c 15 3c 77 36 b8 3c 84 4c b1 3c ef 54 b4 3c
       0.009120074 0.022486908 0.02164293 0.022013156
000010 f9 ca 7b 3c 52 88 ca 3c 41 59 81 3c e5 21 41 bd
       0.015368217 0.024723206 0.01578963 -0.047151465
000020 2e a3 f2 3b 3a 6c cb 3c 8b 73 57 bc 93 8c 04 3b
       0.0074047064 0.02483188 -0.013150106 0.002022539
000030 02 5f 84 3c d4 48 82 3a 46 be 44 bc 44 dc 48 bc
       0.016158585 0.0009939917 -0.012008255 -0.012259547
000040 ee e7 d6 ba 95 d3 cf bc dc ad 6d 3b 7e 63 37 bc
       -0.0016396025 -0.025369445 0.0036266958 -0.011193154
000050 97 2d c7 3b e9 a0 94 3c 2d c0 b5 bc 70 b3 e3 bc
       0.006078433 0.018143134 -0.022186363 -0.027795523
000060 51 39 95 bc e3 34 2d 3c 49 a0 1a 3c 60 ed 0e 3d
       -0.018215807 0.010571691 0.009437629 0.034894347
000070 e0 63 0b 3c 51 30 a1 bc 49 60 05 3b 28 da 81 3c
       0.008507699 -0.01967636 0.002035158 0.015851095

enc.1.post_norm.1.running_mean f4 [32]
000000 ea 86 e4 3e 4a 6f 68 3e 4d ae 2f 3e 7f 6f bb 3e
       0.4463418 0.22698703 0.17156334 0.36608502
000010 1d 31 ee 3e 0e 07 4c 3e 65 ab c8 be 19 f2 24 bf
       0.46521845 0.19924566 -0.39193264 -0.6443191
000020 09 98 59 bf 4d b5 12 bf cc a2 0e bf d0 21 5a bf
       -0.8499761 -0.57307893 -0.5571716 -0.85207844
000030 17 6f 90 be 2c 7f c5 be ad 93 25 bf 32 37 cc be
       -0.28209755 -0.38573587 -0.6467846 -0.3988586
000040 a9 2e cb be 03 fc 1f bf cf 5b 71 be 40 34 e0 be
       -0.39684036 -0.62493914 -0.23570178 -0.43789864
000050 d6 ad 38 bf d9 8d 5d bf cb 88 e8 be f7 ed cf be
       -0.7214025 -0.8654457 -0.45416865 -0.4061124
000060 72 85 e1 be 71 9a 35 bf 8b cf 14 bf 04 cc 76 be
       -0.44047123 -0.70938784 -0.58129185 -0.24101263
000070 ce 5e 0c bf 9f 20 2b bf ec 82 33 be 7e 72 41 bf
       -0.5483216 -0.6684665 -0.17530411 -0.75565326

enc.1.post_norm.1.running_var f4 [32]
000000 fd 83 b0 3f ff bd a1 3f fd 0a af 3f 09 87 aa 3f
       1.379028 1.2636107 1.3675228 1.332246
000010 38 34 a5 3f a5 fa a9 3f 07 60 c7 3e 6b d8 b0 3e
       1.2906561 1.3279616 0.3894045 0.34540114
000020 30 a3 b6 3e 70 2b a8 3e c9 e4 c0 3e be 29 9b 3e
       0.35671377 0.3284564 0.3767455 0.30305284
000030 48 87 8d 3e ac 57 91 3e 95 d9 ee 3e cb 3b a2 3e
       0.27642274 0.283872 0.46650377 0.31686243
000040 7d 98 d4 3e b9 68 ae 3e d4 95 c8 3e 18 ac aa 3e
       0.4152259 0.34064272 0.3917681 0.33334422
000050 0e 98 98 3e 68 b8 8e 3e 37 54 84 3e 35 b2 b7 3e
       0.2980351 0.27875066 0.258455 0.3587815
000060 12 68 d1 3e bd 98 ac 3e fd 56 ab 3e af ef e3 3e
       0.40899712 0.3371028 0.33464804 0.44518802
000070 d0 1e b1 3e 49 f4 b8 3e 79 a1 89 3e 2b d0 8a 3e
       0.3459382 0.36123875 0.26881006 0.27111945

enc.2.mlp.1.weight f4 [128, 32]
000000 6e b2 f6 3d 44 f7 11 3c 2a 8b aa 3d 62 eb 1d be
       0.120457515 0.00890905 0.08327325 -0.15421823
000010 1f 5f b0 bd 31 ef 13 3d c8 ae b8 bc e5 f0 2a bc
       -0.08611893 0.036116783 -0.02254428 -0.01043341
000020 01 e2 3d bd 5b 0d cf bc 18 a5 23 bc 8c 1d bf bd
       -0.046358112 -0.025274923 -0.009988092 -0.093318075
000030 86 8f b4 3d 9b a0 43 be eb bd 2b bd 05 71 03 3e
       0.088164374 -0.19104235 -0.041929167 0.12836082
000040 32 4f 8e 3b f3 9e 4e 3e 04 45 c5 bc b0 cd bc 3b
       0.004342937 0.20177822 -0.02408076 0.0057618245
000050 94 dd 31 3e 43 99 a4 3d ff f6 28 be 39 36 90 bd
       0.17369682 0.08037045 -0.16500472 -0.07041592
000060 f7 ed 99 3d a3 58 36 3e 82 45 00 bc 14 57 b1 3d
       0.07516091 0.1780725 -0.007829072 0.08659187
000070 aa c8 e9 3d 10 29 b3 3d 4c f4 5a bd 55 a4 13 3e
       0.11415227 0.087480664 -0.053455636 0.14418156
000080 77 7b eb 3d dc 18 bf bd f0 6b 21 3e 74 7e a0 bd
       0.114981584 -0.093309134 0.15763831 -0.07836619
000090 b1 3d 14 be f7 ce d9 bd 04 09 c7 3d 42 e7 66 bd
       -0.14476658 -0.106351785 0.097185165 -0.05637289
0000a0 36 07 37 3e 5a 9f d2 bd 28 71 a7 3d 3f fe c3 3d
       0.17873845 -0.102843 0.0817588 0.09569978
0000b0 0e 5b 07 be 13 87 dc bd 2d 8a dc 3c 91 0d 0d 3e
       -0.13218328 -0.10767951 0.026921356 0.13774706
0000c0 3d 81 17 be 62 20 16 3e 28 96 07 bd f5 d9 94 bd
       -0.14795394 0.1466079 -0.033102185 -0.072681345
0000d0 70 d0 b0 3d 8d 3d 1e 3e 59 0d 4f 3d 20 d7 1c be
       0.08633506 0.15453167 0.05054984 -0.15316439
0000e0 c8 f5 1a 3d f5 f5 ea bd f4 7d 84 bc c1 74 62 3d
       0.03783205 -0.11472694 -0.01617334 0.055287126
0000f0 fb 51 9c bc 55 f4 c6 bd af 56 c7 bd 60 66 19 bd
       -0.01908206 -0.097145714 -0.097333305 -0.037451148
000100 8b 73 2c 3c 52 ef 2f 3d 67 2e 21 3e d4 2c 0e be
       0.010525594 0.042952843 0.15740357 -0.13884288
000110 cd f6 00 3e 25 2b ce bc 0b a2 d3 bd 7a b4 c2 3c
       0.12594147 -0.025167057 -0.103336416 0.023767699
000120 62 d4 a0 bd 7f 7e 05 bc a5 df 91 3d 2b a3 3d 3e
       -0.07853009 -0.008147835 0.07122735 0.18519275
000130 d0 3a a3 bd a2 3c c9 bd fc 37 a9 3b 9d 24 25 be
       -0.07970202 -0.09826018 0.0051641446 -0.16127248
000140 14 fc fe bd 5c 80 02 3e 71 7a 11 be 2e 0c 14 be
       -0.12450424 0.12744278 -0.14206864 -0.14457771
000150 2b 5c b9 3d b0 cd 8b 3d bb 29 32 bd 5c 50 1d be
       0.09050783 0.06826341 -0.04349683 -0.15362686
000160 6b 5e 2c bd 11 47 34 3c 9c a2 c0 3d 4c ae 1b be
       -0.04208223 0.011003272 0.09406015 -0.15203208
000170 95 90 23 3e 5d 45 a2 bd a3 b6 d6 bd 29 cf a4 bb
       0.15973122 -0.07923386 -0.10484054 -0.005029578
000180 bf 4f 1d 3e b6 15 d4 3d 44 30 78 bd 34 95 3f bc
       0.15362452 0.103557035 -0.060592905 -0.011693288
000190 50 2b b3 3d ee 10 95 3b 8e 1b 34 bc 22 fd f1 3d
       0.087484956 0.0045491373 -0.010992898 0.118158594
0001a0 55 3a bc 3a 34 dd 5c bd 0a 05 1b 3e a7 b5 4a be
       0.0014360646 -0.053921893 0.15138641 -0.19795857
0001b0 be 7e 16 3e ec 18 58 bd 60 a8 83 bd c9 c2 bb 3d
       0.14696786 -0.052758142 -0.06428599 0.09168012
0001c0 40 64 f9 3d 3b b7 04 bd cc 7f b2 3d 24 0c ea bd
       0.12177324 -0.032401305 0.087157816 -0.11428097
0001d0 f4 60 f1 3d 00 20 23 be 33 98 92 bd 58 b4 4a 3e
       0.117860705 -0.15930176 -0.07157936 0.19795358
0001e0 8e bc ab 3d 73 c5 66 bb 50 28 14 3e 19 b8 a7 bd
       0.08385573 -0.0035212904 0.14468503 -0.08189411
0001f0 d5 79 0b be 84 73 34 3d b5 27 f2 bc fb 7a 2c bd
       -0.13620694 0.044055477 -0.02955995 -0.04210947
000200 84 79 dc bd b8 90 2c be 08 78 92 3d 57 02 89 3d
       -0.10765365 -0.16852081 0.071518004 0.066898994
000210 f3 37 66 3d fb 9b 84 bc 3b 6f 3c 3d 32 bc 20 be
       0.0562057 -0.016187659 0.046004515 -0.15696791
000220 47 34 64 3a ec dd a2 3d 90 fa 01 be 2b c5 36 be
       0.00087052997 0.079524845 -0.12693238 -0.17848651
000230 73 5a 4f be 09 bc 4d bd 8c d2 44 3e 80 9f 92 bd
       -0.20249347 -0.050228152 0.19220942 -0.071593285
000240 98 46 0b be 37 53 fd bc 47 d5 6f 3a 2c cc ef bd
       -0.13601148 -0.030923469 0.0009148907 -0.117088646
000250 17 4c 8d 3d de c6 18 be 40 f2 23 be b6 53 bd 3d
       0.068992786 -0.14919612 -0.1601038 0.09244482
000260 5b cb 1c be 48 45 ad 3c cd b1 9f bd cb e0 15 3d
       -0.15311949 0.0211512 -0.07797585 0.036591332
000270 04 97 2e be d8 01 e3 3d 15 56 c2 3d 4a 36 e2 bd
       -0.17049795 0.11084336 0.09489075 -0.11045511
000280 13 a3 16 3c 81 2d f9 3d ea 72 ef bd c7 00 1e 3e
       0.009194153 0.12166882 -0.1169184 0.15429984
000290 77 0a 48 bd 67 81 e2 bd 16 26 8d bd 35 5b 5b 3d
       -0.048838105 -0.11059838 -0.0689203 0.05355378
0002a0 8f c2 fd bd ee 2e 3b 3e 83 75 46 3d 38 b0 e9 bd
       -0.12390625 0.18279621 0.04845191 -0.11410564
0002b0 e1 34 4b bd 68 c0 1e be df 0b 2c be af 70 9e 3d
       -0.049610976 -0.15503085 -0.16801403 0.077363364
0002c0 3f de d2 bc 64 bb 2a be a0 39 ce 3c d4 99 c1 bd
       -0.02574074 -0.16673046 0.025173962 -0.094531685
0002d0 97 38 95 bd c4 a4 f5 bd f7 15 f3 bd d6 59 53 bb
       -0.07286184 -0.11994317 -0.11869424 -0.0032249591
0002e0 bd 8e 04 be 1f e7 0b be c5 fb 94 3c af 9b 77 bb
       -0.12945075 -0.13662384 0.01818646 -0.0037782004
0002f0 de dd 96 3d 57 89 04 3e 3a a9 9f bc aa 85 06 3d
       0.073665366 0.12943016 -0.019489873 0.032842316
000300 4e 2a 39 3e d1 b1 2e 3e b7 47 8a bc 3b 33 85 bd
       0.18082544 0.17060019 -0.0168799 -0.06503912
000310 87 e0 34 bd 6b 7d 31 be 71 50 56 bd 51 2c 19 3d
       -0.04415944 -0.17333 -0.05232281 0.03739578
000320 49 ec 10 3e cd 15 03 3d ca 63 15 be 5a 0d 34 3e
       0.14152636 0.032003213 -0.14588848 0.17583218
000330 b1 5b 24 be e6 e1 5a bd 0a 2c fa bd b1 c1 c3 bd
       -0.16050602 -0.05343809 -0.12215431 -0.09558428
000340 d8 d0 37 be 9c 3b 85 3d 40 34 c5 bd 07 df 72 bd
       -0.17950761 0.0650551 -0.096291065 -0.059294727
000350 87 af 43 3e 89 62 34 3b 59 ac 0f be 68 77 98 bc
       0.19109927 0.0027524552 -0.14030589 -0.018611625
000360 e4 b6 0c bd ae 50 4f 3d 4b bb 2d 3d f2 be 01 3e
       -0.034354106 0.05061405 0.042414945 0.12670496
000370 bd c9 9f 3d 0d e1 33 be fb e1 eb bc 2e 3e 58 bd
       0.078021504 -0.17566319 -0.02879428 -0.052793674
000380 cc 9d 40 be e2 0c 04 3e 64 a6 24 be 9c 05 1b 3c
       -0.18810195 0.1289554 -0.16079098 0.009461787
000390 b2 47 e5 3d d8 a2 12 3e 90 93 1e be 91 88 39 bd
       0.111953154 0.14319932 -0.15485978 -0.045296255
0003a0 ed aa 24 bd 10 43 ed bb 56 6c 06 be 3f c7 c1 3d
       -0.04020207 -0.0072406605 -0.13127264 0.09461831
0003b0 98 5e b3 3c c9 82 c8 bd 24 b5 34 3d 20 c7 b1 bd
       0.021895692 -0.0979057 0.04411806 -0.08680558
0003c0 1e ba a2 bc 5a 55 13 be e7 9d 2b 3e 73 70 07 bd
       -0.019864138 -0.14388028 0.16759454 -0.033066224
0003d0 73 fd 3a be 40 ea 3e 3d 02 fb 4a 3d dd 11 a5 3d
       -0.18260746 0.046610117 0.049555786 0.08060048
0003e0 15 99 12 3e 69 d2 02 be f2 26 e6 bd 59 3c f1 3d
       0.14316209 -0.12775578 -0.11237897 0.117790885
0003f0 5f 1f 00 3e 0e 34 dc 3d e6 21 98 bb 28 b7 cc bd
       0.12511967 0.10752116 -0.004642713 -0.09995872
